example_model.pt (torch, 116295 bytes, 10 tensors)

conv_1.weight f4 [16, 3, 3, 3]
0	0x3e2135b9	0.1574315
1	0x3c1a2f8e	0.009410752
2	0x3ddaeca7	0.10689669
3	0xbdc8de2a	-0.098079994
4	0xbdfecc28	-0.124412835
5	0xbb72d01b	-0.003705031
6	0x3d4eb7f0	0.050468385
7	0x3e29d218	0.1658405
8	0x3dc9a699	0.09846229
9	0xbe29cfd4	-0.16583186
10	0xbdb72c17	-0.08943956
11	0x3d8170ba	0.06320329
12	0x3e2d68dc	0.16934532
13	0xbd93fc99	-0.072259136
14	0xbe1502c5	-0.14551838
15	0x3d6cd697	0.057821836
16	0xbd589f37	-0.052886214
17	0xbe1bdcfc	-0.15221018
18	0x3d62744b	0.055286687
19	0x3d1e47d8	0.038642734
20	0x3e227863	0.15866236
21	0xbd08bc10	-0.033382475
22	0xbe08ff68	-0.1337868
23	0x3dcec0e7	0.10095387
24	0x3c3df843	0.011594835
25	0x3d1eff44	0.03881766
26	0x3c889da4	0.016676731
27	0xbd011f39	-0.031523917
28	0x3d84729e	0.06467174
29	0xbd448d16	-0.047986113
30	0xbe29afcd	-0.16570969
31	0x3e23a2fc	0.15980142
32	0xbdcc1f5b	-0.09966918
33	0x3d372a66	0.04471817
34	0xbe1c285f	-0.15249775
35	0x3e34aa51	0.17643096
36	0xbd7f9066	-0.06239357
37	0xbc987e5d	-0.018614942
38	0x3e08bb92	0.13352802
39	0x3df946d1	0.1217171
40	0xbe0a450b	-0.135029
41	0xbde625ac	-0.11237654
42	0xbd5a68fa	-0.05332277
43	0xbdd42f05	-0.10360531
44	0xbdd93e59	-0.10607595
45	0x3dce0535	0.10059587
46	0xbe15c12c	-0.1462447
47	0x3dd289b4	0.10280171
48	0xbd260152	-0.040528603
49	0x3e0676c2	0.1313124
50	0x3dd1f01e	0.10250877
51	0xbdf11848	-0.117722094
52	0xbb76c431	-0.003765356
53	0x3e1e99d8	0.15488374
54	0xbd78d6f2	-0.060751863
55	0xbdc5d3b2	-0.09659518
56	0xbc1bc3c4	-0.009507123
57	0x3e344913	0.17606
58	0xbe0efd26	-0.13963756
59	0xbdb7ebb6	-0.08980505
60	0xbd282efd	-0.041060437
61	0x3e2be72a	0.16787401
62	0xbe408bbd	-0.18803306
63	0x3a9f87fb	0.0012171263
64	0x3d5c9ea0	0.053862214
65	0xbdab7f14	-0.083738476
66	0xbe162272	-0.14661577
67	0x3e1302b5	0.14356501
68	0xbd047633	-0.032339286
69	0x3d853150	0.06503546
70	0xbd0f1f9a	-0.034942247
71	0x3e0138ac	0.12619275
72	0xbc8afd32	-0.016966436
73	0x3df6efde	0.1205747
74	0x3d9a20f1	0.07525814
75	0x3d86034b	0.06543597
76	0xbe221e1b	-0.15831797
77	0xbdf3c59d	-0.11902926
78	0x3ccf5988	0.025311247
79	0x3e31fee5	0.17382391
80	0x3e0f6aa4	0.14005524
81	0x3e169bdf	0.14707898
82	0xbd6988c2	-0.057015188
83	0xbe30fea9	-0.17284645
84	0xbca9761e	-0.020686205
85	0x3e32def6	0.17467865
86	0xbd919ef7	-0.07110398
87	0x3e2f2ea1	0.17107631
88	0xbdb500bc	-0.08838031
89	0x3dcffb96	0.10155408
90	0x3df75797	0.12077253
91	0xbdab2214	-0.08356109
92	0x3da5cba9	0.08095486
93	0xbd78d72f	-0.06075209
94	0xbbe2533c	-0.006906895
95	0x3d90f109	0.07077224
96	0xbc7c17a5	-0.015386497
97	0xbe1412de	-0.14460322
98	0xbd3c1245	-0.04591586
99	0xbce84c67	-0.028356744
100	0x3dfdb7aa	0.12388547
101	0xbdbb88d4	-0.09156957
102	0xbcae02e2	-0.021241609
103	0xbda1c3df	-0.078986876
104	0xbdf5665f	-0.11982416
105	0x3daa2061	0.08306957
106	0xbe088bb7	-0.13334547
107	0x3bceae4b	0.0063073984
108	0xbe28bf6f	-0.16479276
109	0xbe3c01d6	-0.18360075
110	0x3d05d7ae	0.03267639
111	0x3dc081d7	0.09399765
112	0x3e1bbb5a	0.15208188
113	0x3e1bfe45	0.15233715
114	0x3db2b08d	0.08725081
115	0x3dcb1945	0.09916929
116	0xbdd5a9e4	-0.10432795
117	0x3e02bee0	0.12768126
118	0x3e2297f9	0.15878285
119	0xbaf23442	-0.0018478709
120	0x3d75b4ca	0.059986867
121	0xbe07502b	-0.13214175
122	0xbd10b0c1	-0.035324816
123	0xbe0ca30c	-0.13734072
124	0xbe1214e2	-0.14265779
125	0xbe1c386e	-0.15255901
126	0x3d546d42	0.05186201
127	0xbdc69044	-0.09695485
128	0x3e04d0b1	0.12970234
129	0x3d1a447f	0.03766298
130	0x3da8a490	0.08234513
131	0xbe372bc0	-0.17887783
132	0xbd0e4639	-0.03473494
133	0x3e36a8b0	0.17837787
134	0x3d04a69a	0.032385446
135	0x3d9083e4	0.07056406
136	0x3d542da6	0.051801346
137	0xbcfd630b	-0.030931016
138	0x3d0ef745	0.034903783
139	0xbd0c79a2	-0.034295686
140	0xbe0b3311	-0.13593699
141	0xbbc56839	-0.006024387
142	0x3ddf9877	0.10917752
143	0xbe0c7659	-0.13717021
144	0xbd18e3be	-0.037326567
145	0x3d4a58e5	0.049401183
146	0x3dfb0218	0.12256259
147	0x3de5e26d	0.11224828
148	0x3d235331	0.03987426
149	0x3d5a5603	0.053304683
150	0x3e2e1c84	0.17003065
151	0xbb05d7e7	-0.0020422877
152	0x3e120a2b	0.14261691
153	0x3e2835db	0.16426794
154	0x3e3688d9	0.1782564
155	0xbe3a86d4	-0.18215495
156	0xbccf986e	-0.025341239
157	0xbe3a44df	-0.18190335
158	0x3da06541	0.07831813
159	0xbe307518	-0.17232168
160	0xbd373053	-0.04472382
161	0x3e177199	0.14789428
162	0x3d871493	0.06595721
163	0xbb7c499b	-0.003849602
164	0x3df7c421	0.120979555
165	0x3dfbba1e	0.122913584
166	0xbd451179	-0.048112366
167	0x3c976c26	0.018484186
168	0x3dcdb598	0.10044402
169	0xbd0a50d2	-0.033768483
170	0xbe0da74f	-0.13833354
171	0xbdc66355	-0.09686915
172	0x3e0e0eb3	0.13872795
173	0x3d1a3554	0.037648514
174	0x3ca74462	0.02041835
175	0x3d2fe15c	0.04293953
176	0x3e050ff1	0.12994362
177	0xbd5e27a8	-0.054237038
178	0x3e0042cc	0.12525481
179	0xbd9a44f2	-0.075326815
180	0xbe361982	-0.17783168
181	0xbe2e3278	-0.1701144
182	0xbe3fcdbf	-0.1873083
183	0x3e07c6d2	0.13259438
184	0xbe230fc6	-0.15923986
185	0xbe1bcf1d	-0.15215726
186	0x3c918731	0.01776466
187	0xbca01b1e	-0.01954418
188	0xbdf084f1	-0.117441066
189	0xbd9a3d55	-0.075312294
190	0xbdf1979e	-0.11796497
191	0x3d4b1c0b	0.04958729
192	0x3c9c1af4	0.019055821
193	0x3ddab174	0.10678378
194	0xbe0dc218	-0.13843572
195	0x3d267eab	0.040648144
196	0x3dc7e990	0.097613454
197	0x3dbd938e	0.092566594
198	0x3de26989	0.110552855
199	0x3e2e9090	0.17047334
200	0x3decdaa7	0.11565142
201	0xbd93108d	-0.07180891
202	0x3c98c0a5	0.018646548
203	0x3d983d82	0.07433607
204	0xbda3d786	-0.08000092
205	0xbd215d7e	-0.0393958
206	0x3daf9c88	0.08574778
207	0xbde65b2b	-0.11247858
208	0xbdd55d87	-0.104182296
209	0x3dd059c2	0.1017337
210	0xbd8309c4	-0.06398347
211	0x3e156ce5	0.14592321
212	0x3d4de965	0.05027141
213	0x3ca8fcd0	0.020628363
214	0x3deb6b23	0.11495044
215	0xbdcfe3db	-0.10150882
216	0x3df7a381	0.12091733
217	0x3e10d10b	0.14142244
218	0xbbf9bfc8	-0.007621739
219	0x3da66d20	0.08126283
220	0xbdf7f64a	-0.12107523
221	0x3dde3834	0.10850564
222	0x3e1e765b	0.15474837
223	0xbdc4ea35	-0.09614984
224	0x3e408425	0.18800409
225	0x3d9624ff	0.07331275
226	0xbd9eaed8	-0.077481925
227	0x3e28c3d5	0.16480954
228	0xbd98f8d7	-0.074693374
229	0xbc861481	-0.016367199
230	0x3d4f5b68	0.05062428
231	0xbcda3f2a	-0.026641447
232	0xbddf7a7e	-0.109120354
233	0xbe3a11ec	-0.18170899
234	0xbcb2febd	-0.021849984
235	0xbd67baf1	-0.056574766
236	0x3caea3e9	0.021318393
237	0x3dd5fd0f	0.10448658
238	0xbcfceb68	-0.03087397
239	0x3e448b7b	0.19193833
240	0xbde41acc	-0.111379236
241	0x3e3e3046	0.18573102
242	0x3dbd37ec	0.09239182
243	0xbdad65b4	-0.08466664
244	0x3db46cfa	0.08809848
245	0xbda2b5fe	-0.079448685
246	0x3e0ccdd2	0.13750389
247	0xbe4a26f8	-0.19741428
248	0xbe419af3	-0.18906765
249	0x3e343d46	0.17601499
250	0xbe26423e	-0.16236207
251	0xbd1e61c6	-0.038667463
252	0x3d898333	0.067144774
253	0x3d0ac9cf	0.033883866
254	0x3e15bfe0	0.14623976
255	0xbe1fcff3	-0.1560667

conv_1.bias f4 [16]
0	0xbe002b4f	-0.12516521
1	0x3e0cc87a	0.1374835
2	0xbdfdc4f2	-0.1239108
3	0x3ccdd426	0.025125574
4	0xbdb5197c	-0.088427514
5	0xbe113109	-0.14178862
6	0xbc30f444	-0.010800425
7	0xbe419f9e	-0.18908545
8	0x3e0f8587	0.1401578
9	0xbe301dc1	-0.1719885
10	0x3d1f2564	0.038854018
11	0x3c1599e8	0.009130932
12	0xbe20286d	-0.15640421
13	0xbdbce65d	-0.09223626
14	0x3dc4085a	0.095719054
15	0x3d25a0ad	0.040436435

conv_2.weight f4 [16, 16, 3, 3]
0	0xbd401cba	-0.046902396
1	0x3c609d6a	0.013709405
2	0xbae8cc2e	-0.0017761046
3	0xbd40c106	-0.04705908
4	0xbcc7042d	-0.024293983
5	0x3da41369	0.08011515
6	0x3d5dbcb5	0.054135043
7	0xbd698aec	-0.05701725
8	0xbd4c2b5e	-0.049846046
9	0xbcbd8947	-0.023136748
10	0xbd9838c3	-0.074327014
11	0xbd81fe7f	-0.063473694
12	0xbc88b64d	-0.01668849
13	0x3d13de27	0.036100533
14	0x3d831cfc	0.06402013
15	0xbd8b0c4e	-0.06789456
16	0x3d3d2b98	0.046184152
17	0xbbe4f83f	-0.006987601
18	0x3acdbd9a	0.0015696764
19	0x3da689cf	0.08131754
20	0xbda86167	-0.08221703
21	0x3d7bf1fd	0.061510075
22	0x3d70eadb	0.058817726
23	0xbd36ce15	-0.04463013
24	0xbbb85bf8	-0.005626198
25	0x3d51f019	0.051254366
26	0xbcb5aa07	-0.022175802
27	0x3cf02477	0.029314263
28	0x3d592b44	0.053019777
29	0xb9241949	-0.00015649678
30	0x3d26a473	0.040684175
31	0xbd2a6241	-0.04159761
32	0x3d258b94	0.040416315
33	0xbd34fea2	-0.04418815
34	0x3d9f53e7	0.07779675
35	0x3b767e10	0.003761176
36	0x3b0a46eb	0.00210994
37	0x3da7f110	0.08200276
38	0xbceb1dd2	-0.028700743
39	0xbd42cddd	-0.047559608
40	0xbcd5af75	-0.026084641
41	0xbc568a3e	-0.013094483
42	0x3d192c58	0.037395805
43	0xbda0ab4f	-0.078451745
44	0x3d5a11ab	0.053239506
45	0x3852e52a	5.0281327e-05
46	0x3d3ca357	0.04605421
47	0x3d3f358e	0.046681933
48	0xbbf52664	-0.007481383
49	0x3d9ab9b4	0.07554951
50	0x3d4132ac	0.047167465
51	0xbda21e99	-0.07915992
52	0xba9ab83d	-0.0011804175
53	0x3a9a9891	0.0011794736
54	0xbd0a1eea	-0.03372089
55	0x3c0fa5b4	0.008767534
56	0x3da3b5ce	0.07993661
57	0x3d62f5d3	0.055410217
58	0xbd7f59c0	-0.06234145
59	0x3cf43277	0.02980922
60	0xbc8a2633	-0.016863918
61	0x3d0daf54	0.034591034
62	0xbd099f5c	-0.033599243
63	0x3d5b7cf6	0.05358597
64	0x3d4d15ab	0.050069492
65	0xbd3b8d11	-0.04578883
66	0x3d3ee004	0.046600357
67	0xbd6e8ea5	-0.058241505
68	0xbd7d50b4	-0.061844543
69	0x3d6b0ee4	0.057387248
70	0xbd85f31d	-0.06540511
71	0x3d5d1963	0.05397929
72	0xbd472176	-0.048615895
73	0xbc8a11d0	-0.016854197
74	0xbd0272e3	-0.031847846
75	0x3d6f3f1f	0.058409806
76	0xbca389fa	-0.019963253
77	0xbd1e005a	-0.038574554
78	0x3c9174fa	0.017755974
79	0xbce534c9	-0.027979271
80	0x3cff6abb	0.031178823
81	0x3d8fa35b	0.070135795
82	0xbcd3d4aa	-0.025858242
83	0x3d699594	0.057027414
84	0xbd6799cb	-0.056543153
85	0xbd9da06e	-0.07696615
86	0x3bb21a8b	0.005435293
87	0xbda17b8a	-0.07884891
88	0xbc3ef868	-0.011655904
89	0x3d602c4e	0.054729752
90	0xbda1e8ef	-0.07905757
91	0x3da2dad9	0.07951898
92	0xbd8c35ab	-0.06846174
93	0x3d2dc87d	0.04242753
94	0xbcbc6701	-0.022998335
95	0xbd05df5f	-0.032683726
96	0xbd312eb4	-0.04325743
97	0x3d174401	0.036930088
98	0xbd8510cf	-0.064973466
99	0x3c2145b3	0.009843278
100	0xbda7efbe	-0.08200024
101	0x3d30ddcb	0.04318027
102	0x3d20bedd	0.03924452
103	0x3cd563a2	0.026048485
104	0x3ce7674c	0.028247498
105	0xbca893a1	-0.020578207
106	0xbd889341	-0.066687115
107	0xbd5b0e0e	-0.0534802
108	0x3d784959	0.060616825
109	0xbd27c3d8	-0.040958256
110	0xbd07cdbb	-0.033155184
111	0xbb3b5777	-0.0028586069
112	0xbd83a1c4	-0.06427339
113	0xbd3c97e3	-0.046043288
114	0xbd2279d1	-0.039666954
115	0x3b8ba07a	0.0042610737
116	0x3bf95143	0.007608564
117	0xbd5ed599	-0.05440292
118	0xbdaa420e	-0.0831338
119	0x3cbd60d2	0.023117457
120	0x3d52537b	0.051349144
121	0x3d4c093f	0.049813505
122	0x39e08d2a	0.00042829785
123	0xbd28cb9a	-0.041209795
124	0x3d7e7319	0.062121484
125	0x3d1929eb	0.03739349
126	0xbc3f2958	-0.011667572
127	0x3c6a6c19	0.014307999
128	0xbd420e3c	-0.047376856
129	0xbd5b0be8	-0.05347815
130	0xbc404fcf	-0.011737778
131	0x3cbf46fc	0.023349278
132	0x3da37644	0.07981542
133	0xbd2ab167	-0.04167309
134	0xbd99e03a	-0.07513471
135	0x3d400866	0.04688301
136	0xbd74ac2f	-0.05973452
137	0x3d5d4506	0.054020904
138	0x3d1c54c7	0.038166787
139	0xbd165e63	-0.036711108
140	0x3c553574	0.0130132325
141	0xbc2c8c8f	-0.010531559
142	0x3c63b483	0.013898018
143	0xbd01dd49	-0.031705175
144	0x3ce0edcf	0.027457146
145	0x3da7d4bc	0.08194873
146	0xbcd3aede	-0.02584022
147	0xbd80533d	-0.062658764
148	0x3d770e45	0.060316343
149	0xbbf144c6	-0.0073629348
150	0xbbfee30c	-0.007778531
151	0xbc774493	-0.015092033
152	0xbcf54ff2	-0.029945347
153	0x3d0c59dc	0.034265384
154	0x3be76c73	0.0070624887
155	0xbd9c0609	-0.076183386
156	0xba51ba96	-0.0008000521
157	0x3d49f966	0.04931011
158	0x3d6f0358	0.0583528
159	0xbd500c35	-0.05079289
160	0x3d419a43	0.047266256
161	0x3d5cc63c	0.05389999
162	0x3b8775e0	0.004133925
163	0x3d65848c	0.05603461
164	0x3c999438	0.018747434
165	0xbcdb04d9	-0.02673571
166	0x3da30c1e	0.079612955
167	0xbc7674d8	-0.015042506
168	0xbd5f5f5e	-0.05453431
169	0xbca85780	-0.020549536
170	0xbd811052	-0.06301941
171	0xbcff5542	-0.031168584
172	0x3da93021	0.08261133
173	0x3c939b57	0.018018408
174	0x3d17698d	0.036965895
175	0xbb9a94a0	-0.0047174245
176	0xbda674d1	-0.0812775
177	0xbd03885c	-0.032112464
178	0xbd481ab8	-0.048853606
179	0xbc900907	-0.01758243
180	0xbd31d4ad	-0.043415714
181	0x3da5dc64	0.08098677
182	0x3d06089e	0.03272306
183	0xbd5bd5fb	-0.053670865
184	0x3ce89fdc	0.02839654
185	0xbcfc983e	-0.030834313
186	0xbda3c57e	-0.07996653
187	0xbd802e08	-0.0625878
188	0xbc81d66a	-0.01584931
189	0xbd91263b	-0.0708737
190	0x3d6dcd00	0.05805683
191	0xbcc96b44	-0.024587281
192	0x3d0821cc	0.033235356
193	0x3c98878b	0.01861932
194	0x3d5c9e83	0.053862106
195	0xbc90f874	-0.017696597
196	0xbc1231fb	-0.008923049
197	0xbbe70264	-0.0070498455
198	0xbd441b4e	-0.047877602
199	0x3c3fe73c	0.011712845
200	0xbd9c7352	-0.07639183
201	0xbd8d9dec	-0.06914887
202	0xbcd8562a	-0.026408274
203	0xbd854496	-0.06507222
204	0xbc994c7f	-0.018713234
205	0x3d3f6a53	0.046732258
206	0xbc070e4d	-0.008243156
207	0xbd29dcec	-0.041470453
208	0x3c0a7617	0.008451006
209	0xbd8e707d	-0.06955049
210	0x3d9daf8b	0.07699498
211	0x3c13730d	0.008999598
212	0xbcd138e2	-0.02553982
213	0xbd65fa42	-0.056146868
214	0x3d498038	0.049194545
215	0x3d2a3015	0.04154976
216	0xbc9f186d	-0.019420827
217	0x3d34ac9b	0.044109922
218	0xbd62a805	-0.055336017
219	0x3cdf498d	0.027256751
220	0x3d5ffc73	0.054684114
221	0xbca65e82	-0.020308737
222	0x3d8d653a	0.06904073
223	0xbd19b66d	-0.03752749
224	0x3d8ff64b	0.070293985
225	0xbd680930	-0.056649387
226	0x3c5f3d6a	0.013625482
227	0xbda7e5bf	-0.081981175
228	0x3d82e79e	0.06391834
229	0x3d80d802	0.062912
230	0xbcd074eb	-0.025446376
231	0x3ac5029a	0.0015030683
232	0x3d0924b9	0.033482287
233	0xbda9e97f	-0.08296489
234	0x3d9c5ab7	0.0763449
235	0xbcabdc48	-0.020979062
236	0xbd9abd76	-0.07555668
237	0xbc46070c	-0.012086641
238	0x3d7f2668	0.062292486
239	0xbbbf1fa0	-0.0058326274
240	0x3d4647bc	0.048408255
241	0xbc2e2f1f	-0.010631352
242	0xba2c7046	-0.00065780093
243	0xbc6d15a2	-0.01447049
244	0x3c014fd4	0.007892568
245	0xbc8418b4	-0.01612506
246	0x3d55b593	0.052175116
247	0xbd6ef62a	-0.05834023
248	0x3d038b18	0.032115072
249	0xbc91d038	-0.017799482
250	0x3d8cf698	0.068829715
251	0x3b01644c	0.001974362
252	0x3d743988	0.05962518
253	0xbd058681	-0.032598976
254	0xbd733cc6	-0.05938413
255	0x3d464645	0.048406858

conv_2.bias f4 [16]
0	0xbd0c2b2d	-0.034220863
1	0xbd33e9bf	-0.04392409
2	0xbd1defca	-0.03855876
3	0xbd6ab7de	-0.057304256
4	0x3c714355	0.014725526
5	0x3d49059e	0.049077623
6	0x3ca73763	0.020412153
7	0x3d6273dd	0.055286277
8	0xbd633539	-0.05547068
9	0x3c604535	0.013688375
10	0x3d10e66c	0.035375997
11	0x3d8fc0fc	0.07019231
12	0x3d748609	0.05969814
13	0xbcf21076	-0.029548865
14	0x3d8347d0	0.064101815
15	0x3c7ee3be	0.015557228

conv_4.weight f4 [16, 51, 3, 3]
0	0xbd3b982b	-0.045799416
1	0x3c445d65	0.011985158
2	0x3c3dd197	0.011585615
3	0x3835368c	4.3204564e-05
4	0x3cdc3701	0.026881697
5	0x3c22607d	0.0099107
6	0x3c9a0562	0.018801395
7	0xbd10e230	-0.03537196
8	0xbcba50f7	-0.022743685
9	0xbcd73739	-0.02627145
10	0xbd2f5f23	-0.04281534
11	0x3cfaade6	0.0306005
12	0xbb5dddf4	-0.0033854218
13	0x3ceb477f	0.028720615
14	0xbc460605	-0.012086396
15	0x3c8ab673	0.016932702
16	0x3a111900	0.00055350363
17	0x3d1fe7fe	0.039039604
18	0xbc239a7f	-0.009985565
19	0x3d221699	0.039572332
20	0x3c52ce62	0.012866588
21	0x3c9c92f4	0.019113041
22	0x3d032e66	0.03202667
23	0x3cb0dfef	0.021591155
24	0xbd0d3ab1	-0.0344798
25	0xbd0f116d	-0.034928728
26	0xbcd9e166	-0.026596736
27	0x3d0f1bcb	0.034938615
28	0x3d314d87	0.043286826
29	0xbd156a7c	-0.036478505
30	0xbc517ea8	-0.012786545
31	0xbce953a4	-0.028482266
32	0x3c887c82	0.016660932
33	0xbcb7241a	-0.022356082
34	0xbc07e4a5	-0.008294259
35	0xbd32e139	-0.04367182
36	0xbcf3db8d	-0.029767776
37	0x3d19a64b	0.037512105
38	0x3ce925b1	0.028460355
39	0x3ca3d8f4	0.020000912
40	0x3c894dcf	0.016760735
41	0xbc45d499	-0.012074613
42	0x3d3d6c3d	0.046245802
43	0x3c34538b	0.011006246
44	0xbcac04b9	-0.020998346
45	0x3c102353	0.008797484
46	0x3cc63c54	0.024198689
47	0xbca4ba17	-0.020108266
48	0xbd06f457	-0.032947864
49	0x3bb83748	0.0056218244
50	0xbd1f1fe7	-0.038848784
51	0x3cde579b	0.027141383
52	0x3cd47709	0.025935667
53	0xbcddf7f3	-0.02709577
54	0x3ccb9e8a	0.02485587
55	0xbc816004	-0.015792854
56	0x3c1ad214	0.009449501
57	0xbc90c81b	-0.017673543
58	0xbd22db58	-0.039759964
59	0xbd38c1b6	-0.045106612
60	0xbd007414	-0.0313607
61	0x3bcf5cb9	0.006328192
62	0xbca9672a	-0.020679075
63	0xbc61cc41	-0.013781608
64	0x3d3b4e17	0.04572877
65	0x3cefe5a0	0.029284298
66	0xbb8a769b	-0.0042255647
67	0xbcd3ad8a	-0.025839586
68	0xbb8881e3	-0.0041658743
69	0x3d135a5a	0.035974838
70	0xbba6593a	-0.0050765546
71	0xbcf5b485	-0.029993305
72	0xbab12ecc	-0.0013517975
73	0xbd023934	-0.031792834
74	0xbd156e02	-0.036481865
75	0x3cc6e9a9	0.02428134
76	0xbb8cfedb	-0.004302842
77	0x3c9c481c	0.019077353
78	0xbcd5c8dc	-0.026096754
79	0x3c757c28	0.014983214
80	0xbd1ca864	-0.038246527
81	0xbd2f3e42	-0.042783983
82	0xbbf967db	-0.0076112575
83	0xbc8540cf	-0.016266255
84	0x3d3f1294	0.046648577
85	0xbc482523	-0.012215885
86	0xbd0e7896	-0.03478297
87	0xbc335b4c	-0.01094706
88	0xbb102971	-0.0021997357
89	0xbc856c2c	-0.016286932
90	0xbbba5c01	-0.0056872373
91	0xbbc48d35	-0.0059982785
92	0xb9cd7ccb	-0.00039193625
93	0x3c482f1a	0.012218261
94	0x3ce5dc94	0.028059281
95	0xba80dbcb	-0.0009831128
96	0x3b36ba6e	0.0027882117
97	0xbd1d1c13	-0.03835685
98	0x3d06b459	0.032886837
99	0x3ca30999	0.019902037
100	0xbb0b1cbf	-0.002122685
101	0xbcb159ec	-0.021649323
102	0xbc9dd6a1	-0.019267382
103	0x3c9e58eb	0.019329509
104	0x3ce71ab6	0.028210979
105	0x3d18de1a	0.037321188
106	0xbd2e6438	-0.042576045
107	0x3d25eeed	0.04051106
108	0x3c7880b1	0.015167401
109	0x3a83bf71	0.0010051561
110	0x3cb592a8	0.022164658
111	0xbcc4202c	-0.023941122
112	0xbcb95ae0	-0.02262634
113	0xbd261fa9	-0.040557537
114	0x3ce95123	0.028481072
115	0xbd3610ba	-0.044449545
116	0xba655551	-0.000874837
117	0xbb2a7773	-0.0026011139
118	0x3d1614f2	0.03664107
119	0xbcdad9f2	-0.026715253
120	0xbcf9fa66	-0.030514907
121	0x3d0df0fb	0.034653645
122	0x3d26a0e3	0.040680777
123	0x3cba6947	0.022755278
124	0x3d2342b0	0.03985852
125	0x3d2783d1	0.040897194
126	0xbb558050	-0.00325777
127	0x3cb158f7	0.021648867
128	0xbcaa124e	-0.020760681
129	0x3c484388	0.012223132
130	0x3d3bc53f	0.045842405
131	0xbcccca04	-0.024998672
132	0x3c566dc7	0.013087696
133	0xbae7d6e6	-0.0017687946
134	0xbc90adb8	-0.01766096
135	0x3caa4d58	0.020788833
136	0xbbd3c9da	-0.0064632716
137	0xbd06ba0c	-0.032892272
138	0x3d17258d	0.036901046
139	0xbccf33c8	-0.025293246
140	0x3c526f38	0.012843899
141	0xbd2b0d37	-0.04176065
142	0x3cd333bb	0.025781503
143	0x3d000eaa	0.031263985
144	0x3cefdd99	0.02928047
145	0xbc64f4c2	-0.01397437
146	0xbc1a71af	-0.009426518
147	0xbd12cd48	-0.035840303
148	0x3c003550	0.007825211
149	0x3cd40504	0.025881298
150	0xbc469c82	-0.012122275
151	0xbcf1bef2	-0.029509995
152	0xbc46f2ae	-0.01214282
153	0xbc2ec366	-0.010666704
154	0xbd1c0159	-0.038087223
155	0xbc497e61	-0.0122981975
156	0x3d13a4f6	0.03604599
157	0x3d2e416f	0.04254287
158	0xbcb30700	-0.021853924
159	0x3cb76b9d	0.022390181
160	0x3d102c8a	0.035198726
161	0x3d195e12	0.037443228
162	0x3c06ea23	0.0082345335
163	0x3cca22f6	0.024674874
164	0xbc7a9f7c	-0.015296813
165	0x3b8b0f58	0.0042437725
166	0xbcf48abb	-0.029851308
167	0xb9a6003e	-0.00031662168
168	0x3d3d2beb	0.04618446
169	0xbc8553a8	-0.016275242
170	0x3d2600af	0.040527996
171	0x3d3d5961	0.046227816
172	0x3bea6f67	0.0071543935
173	0xbc164142	-0.009170832
174	0x3bd008be	0.0063486984
175	0x3c524357	0.012833438
176	0x3d1c5372	0.038165517
177	0x3d38e462	0.045139678
178	0x3c82bbab	0.015958628
179	0x3c089608	0.0083365515
180	0x3cbc8f73	0.02301762
181	0xbc63bc3b	-0.013899858
182	0x3cde726b	0.027154168
183	0x3b301c9e	0.0026872526
184	0xbcff2a6b	-0.031148156
185	0xbd019392	-0.031634875
186	0x3cb12856	0.021625679
187	0xbd27f63f	-0.041006323
188	0x3cc9a46f	0.02461454
189	0xbb51330c	-0.0031921295
190	0xbd1ff02f	-0.039047416
191	0x3cfa6382	0.030565027
192	0x3ba716ee	0.005099169
193	0x3ca2e40f	0.019884137
194	0xbce34037	-0.027740581
195	0x3d3b3b8f	0.045711096
196	0xbc140a78	-0.009035699
197	0xbd070f8c	-0.03297381
198	0x3d2fb479	0.04289672
199	0xbcf2ae54	-0.029624142
200	0xbaa08206	-0.0012245781
201	0x3bbcb4d6	0.005758862
202	0x3d1f5f4a	0.038909234
203	0x3d3ea917	0.046547975
204	0x3ceaed32	0.028677557
205	0x3c8b3ad7	0.01699583
206	0x3c263ec8	0.010146804
207	0xbcc01805	-0.023448953
208	0x3d3781dc	0.044801578
209	0x3cddb48d	0.027063632
210	0xbd1578bf	-0.036492106
211	0x3d11dc7b	0.035610657
212	0xbc904da8	-0.017615154
213	0xbd02f1d1	-0.031968895
214	0xbd29a96c	-0.04142134
215	0xbc5c9f46	-0.013465708
216	0xbcf4b63b	-0.02987205
217	0x3cb27028	0.021781996
218	0xbccc9452	-0.024973068
219	0x3c41b1b7	0.011822156
220	0xbcd30b93	-0.025762355
221	0xbcc5ae0e	-0.024130847
222	0x3c82b303	0.0159545
223	0xbd2e9924	-0.042626515
224	0xbc766ef1	-0.015041099
225	0xbcbf074b	-0.023318907
226	0xbcfc279d	-0.030780608
227	0x3d17fbaa	0.03710524
228	0x3c6d0eb2	0.014468836
229	0xbc0904b7	-0.0083629405
230	0xbc75f2a0	-0.01501146
231	0xbcb13bb6	-0.021634918
232	0x3d23264e	0.039831452
233	0xbcfe971b	-0.031077912
234	0x3c78c31a	0.015183235
235	0xbd3988ba	-0.04529641
236	0xbbbaa0ec	-0.005695453
237	0x3d0a6bfd	0.033794392
238	0xbc9eaa65	-0.01936836
239	0xbbbbdf9b	-0.005733443
240	0xbca738ec	-0.020412885
241	0xbc088c37	-0.008334211
242	0x3d23bddb	0.039975982
243	0xbd1f4da8	-0.03889242
244	0x3b25ee6f	0.002531912
245	0xbbefefc8	-0.0073222853
246	0xbc1d8997	-0.0096153235
247	0xbd099369	-0.033587847
248	0x3cf3b581	0.029749634
249	0xbcdd45de	-0.027010854
250	0x3d378c52	0.044811554
251	0x3cddb0a1	0.027061762
252	0xbd301a64	-0.042993918
253	0xbc49d44b	-0.012318681
254	0x3c919626	0.017771792
255	0x3bc9547e	0.0061441055

conv_4.bias f4 [16]
0	0xbcb85117	-0.022499604
1	0xbb3d4ab3	-0.0028883636
2	0xbcbb5829	-0.022869186
3	0xbc1fdd0c	-0.0097572915
4	0x3d2c55e4	0.0420741
5	0x3d3ed1de	0.046586864
6	0x3cec038a	0.028810281
7	0x3a90d2df	0.0011049173
8	0xbd3950d7	-0.04524311
9	0xbd0470c0	-0.03233409
10	0xbc02b28b	-0.007977138
11	0xbc3c8100	-0.011505365
12	0xbd370d15	-0.04469021
13	0x3d117d8f	0.035520133
14	0x3d3c3538	0.04594919
15	0xbac458b6	-0.0014980051

conv_7.weight f4 [16, 99, 3, 3]
0	0x3d010067	0.031494524
1	0xbc4995db	-0.012303795
2	0x3b9778c7	0.004622552
3	0x3cf5a724	0.029986925
4	0x3cc145dd	0.023592884
5	0xbbfa80fb	-0.00764477
6	0x3ccf25b9	0.025286542
7	0xbc3c127b	-0.011479015
8	0xbd0922ed	-0.033480573
9	0x3c9fdc2e	0.01951417
10	0x3cacc353	0.021089232
11	0xbca0ee57	-0.0196449
12	0x3cec16df	0.0288195
13	0x3d012b18	0.031535238
14	0xbbcc172a	-0.0062283473
15	0x3c6ca1c2	0.014442863
16	0x3cbefee8	0.023314908
17	0x3c00f1fa	0.007870192
18	0x3d07ac5b	0.033123355
19	0xbc70e9be	-0.014704166
20	0x3cc618f0	0.024181813
21	0xbc1b0fc6	-0.00946421
22	0x3cfab98d	0.030606056
23	0xbbfee185	-0.007778349
24	0x3ce6faa1	0.028195681
25	0x3ca01dd7	0.019545479
26	0xbce6b90e	-0.028164413
27	0x3c613e28	0.013747729
28	0xbc2bb9eb	-0.010481338
29	0x3bf9b964	0.0076209772
30	0x3ce25ae1	0.027631225
31	0x3b802737	0.003910925
32	0x3b037b60	0.002006255
33	0x3b05c127	0.0020409317
34	0xbcf44693	-0.029818809
35	0x3c5a221b	0.013313795
36	0xbc32f527	-0.010922707
37	0xbacc8c68	-0.0015605809
38	0xbcfe08a4	-0.03100998
39	0xbc88e0a4	-0.01670868
40	0x3cff6d82	0.031180147
41	0xbd05526a	-0.0325493
42	0xbc9f6442	-0.019456986
43	0x3c178854	0.009248812
44	0xbd067b23	-0.032832276
45	0xbcc7100d	-0.024299646
46	0xb99860e5	-0.0002906389
47	0x3b6e09b1	0.0036321694
48	0x3d07040a	0.032962836
49	0xbc9c9bc6	-0.019117247
50	0x3c8e266f	0.017352311
51	0x3ce4989a	0.027904797
52	0x3c184acf	0.0092951795
53	0x3cee4312	0.029084716
54	0x3cf92328	0.030412272
55	0x3c57d1e9	0.013172605
56	0x3c2fae13	0.010722655
57	0x3ccc8a4e	0.024968293
58	0xbc8df9e8	-0.017331079
59	0xbc987210	-0.018609077
60	0xbc3122b1	-0.010811494
61	0x3c0b952a	0.00851945
62	0xbc61f046	-0.013790196
63	0xbbb87ed7	-0.005630355
64	0x3ce7e9a2	0.028309647
65	0x3c82780f	0.015926389
66	0x3c48e307	0.012261159
67	0x3cd6978d	0.026195312
68	0x3c326eb7	0.010890654
69	0x3be8d6e3	0.0071056946
70	0x3c9a3f71	0.01882908
71	0xbb9227ac	-0.0044602957
72	0xbca4b5e6	-0.020106267
73	0xbc0647a4	-0.008195791
74	0xbcec6bdd	-0.028860027
75	0x39980885	0.00028998047
76	0xbbd09524	-0.006365435
77	0x3cc7d684	0.024394281
78	0x3b21ea2d	0.002470623
79	0xbcda7d3b	-0.026671043
80	0xbcf916a2	-0.0304063
81	0xbc832682	-0.016009573
82	0x3bc0704e	0.0058727628
83	0x3cbfe658	0.023425266
84	0xbccfdd2f	-0.025374023
85	0xbc4b5400	-0.012410164
86	0x3cd14381	0.025544884
87	0xbc3f7aef	-0.0116870245
88	0x3cbee23a	0.023301233
89	0xbd012357	-0.031527843
90	0x3cf2ff46	0.02966274
91	0x3c36c671	0.011155711
92	0x3bee3cb1	0.0072704186
93	0xbcd9469f	-0.026522933
94	0xbb9012a7	-0.004396755
95	0x3cf9e694	0.030505456
96	0xbd07b059	-0.033127163
97	0x3cb9b55a	0.022669483
98	0xbc6f4b2f	-0.0146053275
99	0x3cfa77b8	0.030574664
100	0x3aa9b2c4	0.0012946953
101	0x3ceb28ab	0.028705915
102	0x3c8718ae	0.01649126
103	0xbc59aafd	-0.013285396
104	0xbbfce7f0	-0.007718079
105	0xbcd94c33	-0.026525592
106	0x3ad9d2ff	0.0016618668
107	0x3c9fd221	0.019509377
108	0x3c8d6761	0.017261209
109	0x3b42501c	0.00296498
110	0xbd0381b1	-0.032106105
111	0x3cca0160	0.024658859
112	0xbcf72d30	-0.030172914
113	0xbcf2b5ec	-0.029627763
114	0xbba972f6	-0.005171175
115	0xbb8c92c2	-0.004289956
116	0x3ce3683a	0.02775966
117	0xbc0f5e9f	-0.008750587
118	0xbc8a826f	-0.016907899
119	0x3a93c1e1	0.001127299
120	0x3c8f4e00	0.017493248
121	0x3c30c873	0.010789978
122	0x3a65963a	0.0008758042
123	0xbc001a75	-0.007818808
124	0x3c878fd7	0.01654808
125	0xba0bd6e7	-0.0005334452
126	0xbca13040	-0.019676328
127	0xbd074d16	-0.0330325
128	0xbc22a9bd	-0.009928164
129	0x3a0411a2	0.0005038028
130	0xbc96e7f4	-0.01842115
131	0xbcc2dc51	-0.023786696
132	0xbc372e4e	-0.0111804735
133	0x3ccba1da	0.02485745
134	0x3c558665	0.01303253
135	0xbcfa2d9b	-0.030539325
136	0xbc428c3a	-0.011874253
137	0xbc7a304a	-0.015270302
138	0xbca8f192	-0.020623002
139	0xbc1bcbc9	-0.009509035
140	0xbcdfeb9f	-0.027334033
141	0x3ce5e0a6	0.028061222
142	0xbbe3a47d	-0.0069470988
143	0xbcae241f	-0.021257458
144	0x3bfb14ef	0.0076624076
145	0x3ce16e56	0.027518433
146	0xbb46c4cf	-0.003032971
147	0xbc8ad634	-0.016947843
148	0xbc27429d	-0.010208753
149	0x3d07ff32	0.033202358
150	0x3c9feb5a	0.019521404
151	0x3cd67fce	0.026183989
152	0x3cdbab22	0.026815
153	0x3c28fe7e	0.010314582
154	0x3be0767f	0.0068500633
155	0x3d009a64	0.03139724
156	0xbcc34db3	-0.02384076
157	0xbbed686c	-0.007245114
158	0x3d02c3b2	0.03192491
159	0x3bd5459a	0.0065085413
160	0xbcf10fd8	-0.0294265
161	0x3cae9e7c	0.021315806
162	0x3c5863d8	0.013207398
163	0xbb84589b	-0.004038883
164	0x3c43374f	0.011915042
165	0x3cd9385c	0.026516132
166	0x3cfd8144	0.030945428
167	0x3c923873	0.017849183
168	0x3cb3b7ed	0.021938289
169	0x3c2d20d2	0.010566907
170	0x3cd20bbd	0.025640363
171	0xbc85c0de	-0.016327318
172	0xbc46a321	-0.012123854
173	0x3cfe24b6	0.031023365
174	0xbc4b371e	-0.012403278
175	0xbc5733c8	-0.013134904
176	0xbcfe35e1	-0.03103155
177	0x3c32c989	0.010912308
178	0xbca1d05a	-0.01975267
179	0xbb5277c0	-0.0032114834
180	0xbc853237	-0.016259296
181	0xbc63b0c8	-0.013897128
182	0x3c20d69b	0.009816791
183	0xbcfa5af5	-0.03056095
184	0xbbc10acb	-0.005891179
185	0xbcd77035	-0.026298622
186	0xbb88b627	-0.004172105
187	0x3b86f3a8	0.0041184016
188	0x3a71b725	0.0009220711
189	0x3c8c8d7e	0.017157312
190	0x3cbf50d8	0.023353979
191	0xbce38037	-0.027771099
192	0xbcfb921d	-0.03070932
193	0x3c25c700	0.010118246
194	0x3cec9a8e	0.028882291
195	0xbcf023d0	-0.029313952
196	0xbd051cb6	-0.032498084
197	0xbc7a2645	-0.015267913
198	0xbc2064c9	-0.009789654
199	0x3c8d54ad	0.01725229
200	0xbce8355c	-0.028345756
201	0xba7de177	-0.0009684781
202	0x3cc00015	0.02343754
203	0x3b92523f	0.004465371
204	0x3cb95227	0.022622181
205	0xbc6735d9	-0.014111959
206	0xbcce4c7f	-0.02518296
207	0xbc446a6b	-0.011988263
208	0x39bb1f0f	0.0003569056
209	0xbd02873c	-0.03186725
210	0xbcff4148	-0.031159058
211	0xbc8384bc	-0.016054504
212	0x3bc56ba2	0.0060247937
213	0x3ca1fc92	0.019773755
214	0xbcd6ddb6	-0.026228767
215	0x3bb0715e	0.005384608
216	0xbcda59d2	-0.026654158
217	0x39b0a58d	0.0003369268
218	0x3c245c09	0.0100317085
219	0x3cb063a6	0.021531891
220	0xbcd36e44	-0.025809415
221	0x3bb3fc26	0.005492705
222	0x3d013a48	0.031549722
223	0x3b5fbd14	0.00341398
224	0x3c77f21d	0.015133408
225	0xbc7b2474	-0.015328515
226	0xbc834b70	-0.016027182
227	0x3d008472	0.03137631
228	0xbbc0b0c0	-0.0058804452
229	0xbb0f3737	-0.002185298
230	0xbcee5af2	-0.0290961
231	0xbcf85ba7	-0.03031714
232	0xbc05d1d5	-0.008167704
233	0x3ce96a50	0.028493077
234	0xbcfc7b64	-0.030820556
235	0xbcf3bc53	-0.029752886
236	0xbba84cd4	-0.0051361118
237	0xbbbdf5a6	-0.005797106
238	0xbcfacc42	-0.030614976
239	0xbcd31cdd	-0.025770599
240	0x3ca317ee	0.019908872
241	0x3d0613ce	0.03273373
242	0x3c5e3bd9	0.0135640735
243	0xbc33ca36	-0.010973504
244	0xbc809355	-0.015695253
245	0xbb61c828	-0.0034451578
246	0x3cc12073	0.023575043
247	0xbceecfb4	-0.029151775
248	0xbcd474ad	-0.025934542
249	0xbc22954e	-0.009923292
250	0xbcd7aa3a	-0.026326288
251	0xbcc1cb2c	-0.02365645
252	0x3c6b7981	0.0143722305
253	0x3b02ffcc	0.0019988893
254	0x3c8ee17d	0.017441506
255	0x3c8b8f6f	0.017036168

conv_7.bias f4 [16]
0	0xbcac7ece	-0.021056559
1	0x3c547520	0.012967378
2	0xbce3d54c	-0.027811669
3	0xbce7d29b	-0.028298667
4	0x3cce5794	0.025188245
5	0xbcd02959	-0.025410341
6	0x3c654ef8	0.013995878
7	0xbcff9a64	-0.031201549
8	0x3c851603	0.016245848
9	0x3d09cbd4	0.03364165
10	0xbd00a33c	-0.031405672
11	0xbc04ec95	-0.008113046
12	0x3b8aaf80	0.004232347
13	0x3d000c04	0.03126146
14	0x3c86f15b	0.01647251
15	0x3b6fc37c	0.0036585024

conv_10.weight f4 [3, 147, 3, 3]
0	0x3cb62096	0.022232335
1	0xbc8f7548	-0.017511979
2	0xbca4edf7	-0.020133002
3	0x3cafc947	0.021458281
4	0x3ccaa4c9	0.024736779
5	0xbb7c191e	-0.003846712
6	0xbc8f2053	-0.017471468
7	0xba36370b	-0.0006950951
8	0x3c547127	0.012966431
9	0x3cfd926d	0.03095361
10	0x3c2c35fb	0.010510917
11	0x3b8fca02	0.004388095
12	0xba2da106	-0.00066234206
13	0x3cb27aa7	0.021787
14	0xbbe185e3	-0.0068824156
15	0x3c96c36b	0.01840373
16	0x3aa8c6da	0.0012876645
17	0x3cadd126	0.021217894
18	0xbc103277	-0.008801094
19	0xbc7be4c3	-0.015374365
20	0x3c9d3d33	0.019194221
21	0x3c1e4c16	0.009661695
22	0xb9815be2	-0.00024673255
23	0xbb923ea5	-0.004463034
24	0x3b794dbb	0.0038040716
25	0x3ca10402	0.019655231
26	0x3cea3778	0.028590903
27	0xbcc84e20	-0.024451315
28	0x3c84308e	0.016136434
29	0x3c3b2698	0.011422776
30	0x3cc29101	0.023750784
31	0xbc6aeb72	-0.014338361
32	0x3c3f469e	0.011674551
33	0xbc81126b	-0.015755853
34	0xbc729ca8	-0.014807858
35	0x3cbfbb14	0.023404635
36	0xbca8e822	-0.020618502
37	0x3c3c16a4	0.011480007
38	0xbc9fa55a	-0.019488025
39	0x3ba94287	0.0051654014
40	0x3cd45fe5	0.025924632
41	0x3c3d8078	0.011566274
42	0x3ccbcaae	0.024876919
43	0xbc916371	-0.017747613
44	0x3c281178	0.010258071
45	0x3cb97a28	0.022641256
46	0xbca35254	-0.019936718
47	0xba8121de	-0.0009852012
48	0xba19c3bc	-0.00058656535
49	0x3ce81119	0.028328465
50	0xbc931d10	-0.017958194
51	0x3c5f5c38	0.0136328265
52	0x3ceaf95c	0.028683357
53	0x3c8d4a03	0.017247206
54	0xbb2afb58	-0.0026089754
55	0x3ca9a454	0.02070824
56	0x3c79c183	0.015243891
57	0x3c81070c	0.01575043
58	0xbcc7f7d3	-0.024410164
59	0xbcdbbd61	-0.026823701
60	0xbc3e0dc9	-0.011599966
61	0x3bd66378	0.0065426193
62	0xbc93fc8d	-0.018064762
63	0x3c330653	0.010926801
64	0xbc97c53f	-0.018526671
65	0x3c26c957	0.010179839
66	0xbcde9cea	-0.027174432
67	0x3cc7046f	0.024294106
68	0xbc3d98b7	-0.011572055
69	0x3a57418f	0.0008211368
70	0x3c0d3c63	0.008620354
71	0x3b9e7687	0.004835907
72	0xbcda4817	-0.026645703
73	0x3c96eb6a	0.018422801
74	0xbc19cf60	-0.009387821
75	0x3bfd84a8	0.007736761
76	0xbc9add46	-0.01890434
77	0xbb80f746	-0.0039357273
78	0x3c41f17b	0.011837359
79	0xbb4a31c8	-0.0030852426
80	0xbb1b9461	-0.0023739564
81	0x3c0c844d	0.008576465
82	0x3ce5531a	0.027993727
83	0x3d05d584	0.032674327
84	0xbbe47049	-0.0069713932
85	0xbc801623	-0.015635556
86	0x3c4654a0	0.012105137
87	0x3cc02858	0.023456737
88	0x3bbdbc30	0.005790256
89	0xbc86f07a	-0.01647209
90	0x3c4d401b	0.012527491
91	0x3a143fb0	0.0005655242
92	0x3d16190f	0.03664499
93	0x3cb1758f	0.021662502
94	0x3cacabd7	0.021078033
95	0x3b062a0b	0.0020471837
96	0x3b881c90	0.0041537955
97	0xbc1f7d26	-0.009734428
98	0x3b64fcc7	0.0034940706
99	0xbb8f4854	-0.004372636
100	0xbc2d4aa3	-0.010576877
101	0x3cba1527	0.022715164
102	0xbc1cacef	-0.009562715
103	0x3c8264c0	0.015917182
104	0x3bb47f6d	0.0055083544
105	0x3bb67699	0.005568337
106	0x3cd47747	0.025935782
107	0xbb2ff6e5	-0.0026850041
108	0xbca3dd10	-0.020002872
109	0x3c959976	0.018261652
110	0x3c903bc9	0.017606633
111	0x3cf80684	0.030276544
112	0xbba5557e	-0.005045592
113	0x3d0230f4	0.031784967
114	0x3cac6e40	0.021048665
115	0x3bda739c	0.0066666137
116	0x3d0808dd	0.033211578
117	0x3ca4a69c	0.020098977
118	0xbb4bda80	-0.0031105578
119	0xbc9a2c0e	-0.018819835
120	0x3b7de491	0.0038740973
121	0x3ca66faa	0.020316917
122	0xbc6088ce	-0.013704492
123	0x3cc23290	0.02370575
124	0xbcc36488	-0.023851648
125	0xbbb2580c	-0.005442625
126	0x3bf9eff7	0.007627483
127	0x3cd032d0	0.025414854
128	0xbca89120	-0.020577013
129	0x3c008ae8	0.007845618
130	0xbbcbbb30	-0.006217383
131	0xbbe00049	-0.0068359715
132	0xbc9ec14b	-0.019379279
133	0x3cb37f60	0.021911323
134	0xbc42910c	-0.011875402
135	0xbcd02d95	-0.02541236
136	0x3cc03ecb	0.023467442
137	0xbb664503	-0.003513635
138	0x3c939df7	0.01801966
139	0x3c65cca3	0.01402584
140	0xbbd61c23	-0.006534116
141	0xbbd5f458	-0.006529372
142	0x3c5d134c	0.01349337
143	0xbc8a8c5d	-0.016912634
144	0x3c7c915a	0.015415514
145	0xbc6b301a	-0.01435473
146	0xbc2d1ff1	-0.010566697
147	0xbc89db3b	-0.01682817
148	0x3c97e7e4	0.018543191
149	0x3c900ac3	0.017583257
150	0x3c5aac7b	0.013346787
151	0x3c211225	0.009830986
152	0x3c790f3a	0.015201384
153	0xba6e4661	-0.0009089467
154	0xb85dd1cb	-5.288589e-05
155	0xbc579a00	-0.013159275
156	0xbb82c039	-0.0039902
157	0x3ce216cc	0.027598761
158	0x3bebc623	0.0071952506
159	0x3b8f60ca	0.004375552
160	0x3c1ba251	0.0094991485
161	0x3ca96ebb	0.020682683
162	0xbca216a8	-0.019786194
163	0x3c8a0f1f	0.016852913
164	0x3a86742e	0.0010258013
165	0xbc726b35	-0.014796068
166	0x3c856104	0.016281612
167	0xbc23c9ee	-0.009996874
168	0xbcb71891	-0.022350581
169	0xbcc34cb2	-0.023840282
170	0x3bbd07a2	0.005768732
171	0x3c34c786	0.011033898
172	0x3cdfcf39	0.027320491
173	0xbb38bad8	-0.002818754
174	0x3c4fbe52	0.012679653
175	0xbb03d2dd	-0.0020114698
176	0x3cfe66ba	0.031054843
177	0xba09f4fc	-0.0005262641
178	0x3cb4b6f4	0.022059895
179	0xba9fa4fb	-0.0012179905
180	0xbc25579a	-0.010091687
181	0xbc04f9f8	-0.008116238
182	0xbb5fb4c9	-0.0034134856
183	0xba141288	-0.00056485133
184	0x3b103a07	0.0022007243
185	0xbbca283c	-0.006169347
186	0x3c28766e	0.010282142
187	0x3c1987c6	0.00937075
188	0x3bc17fba	0.005905119
189	0xbc021421	-0.007939369
190	0x3cbe8583	0.023257023
191	0x3cfdf6d6	0.03100149
192	0x3cdbd8ef	0.02683684
193	0x3b3bb70c	0.002864304
194	0xbc3e8f07	-0.01163078
195	0xbc79ff8b	-0.01525868
196	0x3c5393ad	0.012913627
197	0xbc9b0dc2	-0.018927459
198	0xbc090641	-0.008363307
199	0x3b58af3d	0.0033063435
200	0x3993bfb0	0.00028180843
201	0x3b08d29b	0.0020877484
202	0xbb2c4a53	-0.0026289418
203	0x3b93f839	0.0045156744
204	0x3c8c2c8f	0.017111091
205	0xbc851ff0	-0.01625058
206	0x3c961982	0.01832271
207	0xbc1d4bdd	-0.009600607
208	0xbc39fee6	-0.011352276
209	0xbcc8fe04	-0.024535187
210	0x3bb51180	0.005525768
211	0x3c030438	0.007996611
212	0xbc9ac88b	-0.018894454
213	0xbcc8908b	-0.024482986
214	0x3b5f65ff	0.0034087894
215	0xbc09385b	-0.008375253
216	0x3ca82e24	0.020529814
217	0x3c7aabe4	0.015299771
218	0x3bf8bbfa	0.007590768
219	0x3c9b5774	0.0189626
220	0x3cee29fb	0.029072752
221	0x3cef51e8	0.02921386
222	0x3c806954	0.015675224
223	0x3ccdc55d	0.025118524
224	0xbad286d7	-0.0016061914
225	0xbc10adc0	-0.008830488
226	0x3be77488	0.007063452
227	0x3bb6db67	0.005580354
228	0x3c0d74cc	0.008633804
229	0xbc05ed05	-0.008174186
230	0x3c2de5c3	0.0106138615
231	0xbc896c33	-0.016775226
232	0x3cb14fbc	0.021644466
233	0xbca1aa85	-0.01973463
234	0xbbc24de9	-0.005929698
235	0x3ca8dd8f	0.02061346
236	0xbca4e995	-0.020130912
237	0x3be0cf0a	0.0068606185
238	0x3c6293aa	0.013829151
239	0xbc8d604f	-0.017257838
240	0xbb5d70aa	-0.0033789077
241	0x3cd2893c	0.025700204
242	0x3ce82948	0.028339997
243	0xbc0b59e8	-0.008505322
244	0x3c3c9ea8	0.011512436
245	0xbb946128	-0.0045281835
246	0xbc9cdf67	-0.019149495
247	0x3cdd0151	0.026978167
248	0xbc88c874	-0.016697146
249	0x3cc47990	0.023983747
250	0x3c7930c7	0.015209383
251	0xbb474d7f	-0.0030411182
252	0x3c59ee81	0.013301493
253	0xbb321e23	-0.0027178607
254	0xbc8e99af	-0.017407266
255	0xba5afff8	-0.00083541824

conv_10.bias f4 [3]
0	0x3d164f0f	0.03669649
1	0xbd13cf1d	-0.03608619
2	0xbbe6cda8	-0.007043559
